model.pth (torch, 16787 bytes, 4 tensors)

linear1.weight f4 [256, 11]
0	0x3e092ff6	0.13397202
1	0xbd9970d2	-0.07492222
2	0xbdc9f610	-0.09861386
3	0xbac302d3	-0.0014878161
4	0xbe7bba70	-0.24582839
5	0xbd81d703	-0.06339838
6	0xbe839e73	-0.25706825
7	0xbe6e825b	-0.23291914
8	0xbdf86e8e	-0.12130462
9	0x3e067eed	0.13134356
10	0xbe7c226a	-0.24622503
11	0x3d842454	0.064522415
12	0x3e000720	0.12502718
13	0xbe959825	-0.2921764
14	0xbe79de4b	-0.24401204
15	0x3e814b59	0.25252798
16	0xbdb54a7e	-0.08852099
17	0xbe437105	-0.19086082
18	0xbe1b0dd1	-0.1514199
19	0xbde91860	-0.11381602
20	0x3d9a94e4	0.0754793
21	0xbddd4762	-0.10804631
22	0x3d5bc643	0.053655874
23	0x3dca5dd3	0.09881177
24	0xbdb645a0	-0.08899999
25	0x3e6eee6c	0.23333138
26	0xbdc9bbf8	-0.09850305
27	0xbc43d4bd	-0.011952576
28	0x3e2f0b44	0.17094141
29	0xbd7743ee	-0.060367517
30	0xbe84415c	-0.25831115
31	0x3afff6e8	0.001952854
32	0xbe4809e8	-0.19535029
33	0x3e6f9d05	0.23399742
34	0x3e3d790f	0.18503211
35	0xbded85bb	-0.11597773
36	0x3e11fbeb	0.14256255
37	0x3e667927	0.22507153
38	0x3de9cbee	0.114158496
39	0xbe42f2f4	-0.19037992
40	0xbe40981d	-0.18808027
41	0x3e8e9627	0.27848932
42	0x3d9f61c7	0.077823214
43	0xbe0b4edf	-0.13604306
44	0xbd92b60a	-0.071636274
45	0x3d0d7086	0.03453114
46	0x3e40823e	0.18799683
47	0xbe8bcb5b	-0.27303585
48	0xbe457584	-0.1928311
49	0x3e006e45	0.12542064
50	0xbea34d45	-0.3189489
51	0x3e495697	0.19661938
52	0xbe8400a6	-0.25781745
53	0x3df32ee5	0.11874179
54	0xbe9560af	-0.29175326
55	0xbdb0c9ed	-0.08632264
56	0xbe1f2eb8	-0.15545166
57	0xbe6fa960	-0.23404455
58	0x3d0f8e73	0.03504796
59	0x3e8c85a5	0.27445713
60	0x3e2e357d	0.17012592
61	0x3e5f99b4	0.21835977
62	0xbe39654d	-0.1810505
63	0xbe87e6f1	-0.26543382
64	0xbdc2447c	-0.094857186
65	0x3d87ff5b	0.06640502
66	0x3c861298	0.016366288
67	0xbd45c69c	-0.04828511
68	0x3d66ddb5	0.05636378
69	0x3e8f0535	0.2793366
70	0x3e3a274c	0.18179053
71	0xbe1cd3e8	-0.15315211
72	0x3e26f2c1	0.16303541
73	0x3e1a2023	0.15051322
74	0x3e619cd4	0.22032481
75	0x3ca58967	0.02020712
76	0xbdfeb926	-0.12437658
77	0x3e9faeff	0.311882
78	0xbd270175	-0.040772874
79	0xbe8bcc50	-0.27304316
80	0x3e2d1c7a	0.16905394
81	0xba855707	-0.0010173031
82	0x3dc07855	0.093979515
83	0x3d666ff9	0.05625913
84	0x3e25ef22	0.16204503
85	0x3e746a3d	0.23868652
86	0xbe49dee7	-0.19713937
87	0x3e653297	0.2238258
88	0xbe933a40	-0.2875538
89	0xbc9e53e0	-0.019327104
90	0xbe7fb7bd	-0.24972434
91	0xbe92f3ba	-0.28701574
92	0x3e217f79	0.15771283
93	0xbdc36eed	-0.09542642
94	0x3daca9eb	0.08430847
95	0x3e15ee27	0.14641629
96	0x3e4d64ef	0.20058034
97	0xbe44b80a	-0.1921083
98	0xbdc1f7d8	-0.094711006
99	0x3e915ba0	0.28390217
100	0xbe9c201f	-0.30493256
101	0xbe3d8e25	-0.18511255
102	0x3e349c45	0.17637737
103	0xbe8825b3	-0.26591262
104	0xbe702b58	-0.23454034
105	0x3e64674f	0.22305034
106	0x3d696dd1	0.056989495
107	0x3d7feba2	0.062480576
108	0xbcbccca1	-0.023046793
109	0x3d676f92	0.056502886
110	0xbe159276	-0.14606652
111	0x3c7b39c0	0.015333593
112	0xbe8a8ac6	-0.27059
113	0xbe986678	-0.29765677
114	0x3e0e102b	0.13873355
115	0xbd3869a0	-0.045022607
116	0xbe75e3c4	-0.24012667
117	0xbdafb7af	-0.08579957
118	0xbe8d0556	-0.27543133
119	0x3e3538c8	0.17697442
120	0xbde23316	-0.110449
121	0x3d9aa19c	0.07550356
122	0x3e75a121	0.23987247
123	0x3e697760	0.22799444
124	0x3de7b587	0.113139205
125	0x3d3a32a7	0.045458462
126	0x3e19fe18	0.15038335
127	0xbe2005a1	-0.15627147
128	0x3e7e1330	0.24812007
129	0x3e3dbaf4	0.18528348
130	0x3d804ecd	0.0626503
131	0x3e1ec30f	0.15504096
132	0xbe575611	-0.21028925
133	0xbcf478a8	-0.02984269
134	0xbd902ffb	-0.070404015
135	0x3e2fb12c	0.1715743
136	0x3e818b0c	0.25301397
137	0x3dc5fd21	0.09667421
138	0xbd02b2e1	-0.031908873
139	0x3dd8f2c0	0.10593176
140	0x3e135b63	0.1439033
141	0xbdf0e4cc	-0.117623895
142	0x3d75f1ac	0.06004493
143	0x3e0db6ea	0.13839307
144	0xbe3dcbd6	-0.18534788
145	0xbe16e3aa	-0.14735284
146	0xbe574984	-0.21024138
147	0x3e97a1fd	0.29615775
148	0xbe48de67	-0.1961609
149	0xbe8edf8a	-0.27904922
150	0x3c9192f7	0.017770274
151	0xbe001c0c	-0.12510699
152	0xbe0b69ea	-0.13614622
153	0x3e86dfe9	0.26342705
154	0x3e10ab72	0.14127901
155	0xbe78e0a3	-0.24304442
156	0xbd10910f	-0.03529459
157	0x3e2017bd	0.15634055
158	0x3e199b69	0.1500069
159	0x3c60c875	0.013719668
160	0x3d24e70b	0.040259402
161	0x3e5470b4	0.20746118
162	0xbe4fd317	-0.20295368
163	0xbdbd0b2d	-0.09230647
164	0xbd8dcb9b	-0.069236
165	0xbe84c570	-0.25931883
166	0x3e33045a	0.17482129
167	0xbd94fe24	-0.07275036
168	0x3d421490	0.04738289
169	0x3e9b1646	0.3029043
170	0x3da8c463	0.08240583
171	0x3d807ec9	0.06274182
172	0x3d832b65	0.06404761
173	0xbca33637	-0.019923313
174	0x3e89c5f7	0.26908848
175	0xbe83d3ad	-0.25747433
176	0x3e356097	0.17712627
177	0xbdca2746	-0.09870772
178	0xbd9f8816	-0.07789628
179	0xbe80926c	-0.2511171
180	0xbe54ebfc	-0.20793146
181	0xbe99b39e	-0.3001985
182	0xbe5841fc	-0.21118921
183	0xbdd9e0d7	-0.10638588
184	0xbe2ca36c	-0.16859215
185	0x3e2b95b2	0.16756323
186	0xbe684398	-0.22682035
187	0x3e59c440	0.2126627
188	0x3e985053	0.29748783
189	0xbde82954	-0.11336008
190	0xbe995d3d	-0.29953948
191	0xbd05361e	-0.032522313
192	0x3dc14207	0.09436422
193	0xbe544506	-0.20729455
194	0x3d378608	0.044805557
195	0x3d203c25	0.03911986
196	0xbe92f2fe	-0.28701013
197	0x3e118417	0.14210545
198	0xbe8edef6	-0.2790448
199	0xbe323850	-0.17404294
200	0x3e6e147d	0.23250003
201	0xbe6ae2c2	-0.22938064
202	0x3e628ad1	0.22123267
203	0x3d2f7992	0.042840548
204	0x3e08a98c	0.13345927
205	0x3e5333f5	0.20625289
206	0xbe15765d	-0.14595933
207	0x3d2f044f	0.04272872
208	0x3e9cac49	0.30600193
209	0x3e42ca3a	0.19022456
210	0x3df082fb	0.117437325
211	0x3aca1364	0.0015417156
212	0xbe95a432	-0.29226834
213	0xbe2376a7	-0.15963231
214	0xbd223761	-0.039603595
215	0x3d602432	0.05472202
216	0x3e916b8a	0.28402358
217	0x3e9890f0	0.2979808
218	0xbc7f04a0	-0.0155650675
219	0xbd69864c	-0.05701284
220	0xbc6a9ee5	-0.01432011
221	0xbe95e678	-0.29277396
222	0x3e1dedeb	0.1542279
223	0xbd1ef92e	-0.038811855
224	0x3e991838	0.2990129
225	0xbe3c16bb	-0.18368046
226	0xbdbf3b80	-0.093375206
227	0xbddef6ee	-0.10886942
228	0xbd95e685	-0.07319359
229	0x3d84d913	0.06486716
230	0x3d748b04	0.059702888
231	0x3dc7d353	0.09757104
232	0x3d82ef90	0.06393349
233	0xbe966288	-0.29372048
234	0x3e92ba7e	0.28657907
235	0x3e5f4279	0.21802701
236	0x3d008371	0.031375352
237	0x3da30c81	0.07961369
238	0x3e832664	0.25615227
239	0x3e7ccd1d	0.2468762
240	0x3e38e486	0.18055925
241	0x3e485682	0.1956425
242	0xbddd453a	-0.108042195
243	0xbda5c23f	-0.0809369
244	0xbe516f7b	-0.20452683
245	0x3e5ddd3a	0.21666422
246	0x3e272211	0.16321589
247	0x3e9b15ce	0.30290073
248	0x3e0b1524	0.13582283
249	0xbd765db8	-0.06014797
250	0xbe641d15	-0.22276719
251	0x3e9a4fe1	0.30139068
252	0x3e648811	0.2231753
253	0xbc75d6fb	-0.015004869
254	0xbe8d1f90	-0.27563143
255	0x3e8592e4	0.2608863

linear1.bias f4 [256]
0	0x3e843f8f	0.2582974
1	0xbe44182b	-0.19149844
2	0x3debd27a	0.115147546
3	0x3e701233	0.23444442
4	0x3e5526ce	0.20815584
5	0x3df639ea	0.12022765
6	0x3d2ce350	0.04220897
7	0x3d819f59	0.06329221
8	0xbe25af13	-0.16180067
9	0x3d4d7ebf	0.050169703
10	0xbe5cc631	-0.21559979
11	0x3e193bd8	0.14964235
12	0xbdbc757a	-0.092020944
13	0xbe846683	-0.2585946
14	0xbe43f024	-0.19134575
15	0x3ca3ee7d	0.020011181
16	0x3de32e96	0.1109287
17	0xbe3bba87	-0.18332873
18	0x3d8f9c23	0.070122026
19	0x3e3838a1	0.17990352
20	0x3e98967e	0.29802316
21	0xbe301fa0	-0.17199564
22	0x3e969106	0.2940752
23	0xbde56492	-0.11200823
24	0xbe36f920	-0.17868471
25	0xbda8e328	-0.082464516
26	0xbd362d0a	-0.044476546
27	0x3d58dd92	0.05294568
28	0x3dab7317	0.08371561
29	0x3e88ed66	0.2674362
30	0xbca8afe8	-0.020591691
31	0x3e7d9c19	0.24766578
32	0x3e3bf5dd	0.18355508
33	0xbd2ce78e	-0.042213015
34	0x3d8a5517	0.06754511
35	0x3e26d461	0.16291954
36	0x3e8c591c	0.27411735
37	0x3df4f8d2	0.11961521
38	0xbe8eb690	-0.2787366
39	0xbe33598b	-0.17514627
40	0x3e220f5d	0.15826173
41	0xbceca89d	-0.028888995
42	0xbe1d8957	-0.15384422
43	0x3ce866f8	0.028369412
44	0xbd7ae18a	-0.061250247
45	0x3e804d48	0.2505896
46	0xbe4d1fe5	-0.20031698
47	0xbde95c38	-0.113945425
48	0x3e0bb25c	0.13642257
49	0x3e3148f4	0.17312986
50	0xbddc86ca	-0.107678965
51	0xbd0c0f05	-0.03419401
52	0x3e7745e3	0.24147753
53	0xbe4941a8	-0.19653952
54	0xbe768d1f	-0.24077271
55	0xbe4f2906	-0.20230493
56	0xbd9829ea	-0.074298695
57	0x3d75ebca	0.06003932
58	0x3dba8a2b	0.09108385
59	0x3dc835aa	0.097758606
60	0x3eaeff0e	0.34178966
61	0x3e4fda5a	0.20298138
62	0x3ddf8769	0.10914499
63	0x3e8c1ff6	0.27368134
64	0x3e8515b1	0.25993112
65	0xbe79ad1e	-0.24382445
66	0xbe72b40b	-0.23701493
67	0xbd3a4ef5	-0.045485456
68	0xbe0f2533	-0.13979034
69	0x3deb62ff	0.114934914
70	0x3e402558	0.18764246
71	0x3e5ee9de	0.21768901
72	0xbe961dce	-0.29319614
73	0x3d7a23c7	0.061069276
74	0x3e99867c	0.29985416
75	0x3e8cb9f0	0.2748561
76	0xbe05096a	-0.12991872
77	0xbe85bcd1	-0.26120618
78	0x3e887bee	0.2665705
79	0x3cdec138	0.027191743
80	0xbddf24b7	-0.10895675
81	0x3becd9a7	0.0072280946
82	0xbe056382	-0.1302624
83	0xbd78ce0b	-0.060743373
84	0xbe2cb730	-0.16866755
85	0x3d8acce6	0.067773625
86	0x3e057ce7	0.13035928
87	0xbe01bbf3	-0.12669353
88	0x3d47d66f	0.048788484
89	0x3d9b4695	0.07581822
90	0x3e663603	0.22481541
91	0xbe08e83b	-0.13369839
92	0xbdfdbeac	-0.123898834
93	0x3c7d01f4	0.01544236
94	0x3e88b474	0.26700175
95	0xbe8a687e	-0.27032846
96	0xbddffbc4	-0.10936692
97	0x3e9177d7	0.28411743
98	0x3d63d50b	0.055623095
99	0xbe344647	-0.17604934
100	0xbd838fad	-0.06423888
101	0x3d460ec4	0.048353925
102	0x3d52684a	0.05136899
103	0x3dd04461	0.10169292
104	0xbe38fa1c	-0.18064159
105	0xbd98e1b8	-0.074649274
106	0xbe575357	-0.21027885
107	0x3e85986a	0.26092845
108	0xbe86595b	-0.26240048
109	0xbda07d96	-0.078364536
110	0x3de54101	0.11194039
111	0x3d4e46b8	0.05036041
112	0xbd4f8e7f	-0.050673004
113	0xbe530d84	-0.20610625
114	0x3e0353c4	0.12824923
115	0xbe157100	-0.14593887
116	0xbe3313d8	-0.17488039
117	0xbe8e0dca	-0.27744895
118	0x3d2fe8b1	0.04294652
119	0x3eaacbc7	0.33358595
120	0x3e818be4	0.2530204
121	0x3c12332c	0.008923333
122	0x3d463da4	0.04839863
123	0xbe6205a7	-0.22072469
124	0xbd6c5aa0	-0.057703614
125	0xbdff02f7	-0.124517374
126	0xbe7b79d6	-0.24558195
127	0xbcbee8ed	-0.023304427
128	0xbde69348	-0.112585604
129	0x3e4181b8	0.1889714
130	0x3dc2d9f0	0.095142245
131	0x3cb02a4c	0.021504544
132	0x3e791128	0.24322951
133	0x3e732483	0.23744397
134	0xbe5984fd	-0.21242137
135	0xbe869833	-0.26287994
136	0xbe5e4c94	-0.217089
137	0x3e8acc54	0.27109015
138	0x3e597f96	0.21240076
139	0x3de6b74d	0.112654306
140	0x3e16428f	0.14673828
141	0x3ce51b16	0.027967017
142	0x3e0b8396	0.13624415
143	0x3e700cba	0.23442355
144	0x3ea74b40	0.326746
145	0x3e92117e	0.2852897
146	0x3e6c7377	0.23090921
147	0xbe516481	-0.20448495
148	0xbe3f3d75	-0.18675788
149	0x3e70ebff	0.23527525
150	0x3e41f2e8	0.18940318
151	0xbe7c11d6	-0.24616179
152	0xbe7ff786	-0.24996766
153	0x3e5b46a3	0.21413665
154	0x3e268c97	0.16264568
155	0x3e9a6599	0.30155638
156	0x3e9b39a5	0.30317417
157	0xbe12c276	-0.14331993
158	0x3dbe7ec6	0.09301524
159	0xbe94e96d	-0.2908434
160	0x3da6716b	0.081271015
161	0xbe501f24	-0.20324379
162	0x3d2efeeb	0.042723577
163	0x3d545ba0	0.051845193
164	0x3e40618a	0.18787208
165	0x3e3d57e4	0.18490559
166	0x3db3aed8	0.08773583
167	0x3e801671	0.2501712
168	0x3e888cf0	0.26670027
169	0x3e13138f	0.1436293
170	0xbe41da0c	-0.18930835
171	0xbe188a9a	-0.14896622
172	0x3e10e660	0.14150381
173	0x3e46f541	0.19429494
174	0x3c47ec89	0.0122023905
175	0x3e94ebb1	0.29086068
176	0x3d56a2fe	0.052401535
177	0x3e552f54	0.20818835
178	0x3d8d4c5e	0.068993315
179	0xbe1615cd	-0.14656754
180	0x3e586441	0.21131994
181	0xbd86a154	-0.0657374
182	0xbd4fe00b	-0.050750773
183	0xbdcf8a9c	-0.101338595
184	0x3e6e140b	0.23249833
185	0xbc7dcdf7	-0.015491
186	0x3c850294	0.01623658
187	0x3e12613b	0.14294903
188	0xbe360088	-0.1777364
189	0xbdbdeadc	-0.092733115
190	0xbe0a676d	-0.13516016
191	0xbd91615e	-0.070986494
192	0x3d47175d	0.048606265
193	0xba0a5b88	-0.00052779214
194	0x3e92d106	0.28675097
195	0xbcc31e27	-0.023818089
196	0x3e90280e	0.2815556
197	0xbde7d746	-0.11320357
198	0x3e1b4a11	0.15164973
199	0xbe3cb4d6	-0.18428358
200	0xbe3f4376	-0.18678078
201	0xbe8b6495	-0.27225175
202	0xbd9e13ee	-0.07718645
203	0xbdd286b5	-0.102795996
204	0x3e1e12b9	0.1543683
205	0x3df0ecfe	0.11763953
206	0x3e1bcc0d	0.15214558
207	0xbd412059	-0.04714999
208	0xbe5ee26f	-0.21766065
209	0xbe7070cc	-0.23480529
210	0xbe46ae31	-0.19402386
211	0x3da28ac6	0.07936625
212	0x3e08f0b2	0.13373068
213	0xbe5c7323	-0.21528296
214	0xbdc25785	-0.09489349
215	0xbe9b539f	-0.30337235
216	0x3e6dee35	0.232354
217	0x3deaaa22	0.114582315
218	0xbe4d22eb	-0.20032851
219	0x3e4cc0d5	0.19995435
220	0x3e76c1eb	0.24097411
221	0x3e0f5eae	0.14000961
222	0xbe75641e	-0.23963973
223	0xbe271ca0	-0.16319513
224	0x3e924dd5	0.28575006
225	0xbe2158f9	-0.15756597
226	0x3b7fcb3c	0.003903105
227	0x3e8469fe	0.25862116
228	0xbe21a025	-0.15783747
229	0xbcc217a4	-0.023692913
230	0xbe490aad	-0.19632979
231	0xbe31c286	-0.17359361
232	0x3e929154	0.28626502
233	0x3e1eb920	0.15500307
234	0x3d2e0898	0.042488664
235	0x3e1d8ddf	0.15386151
236	0xbe8f698a	-0.28010207
237	0x3e8bd15e	0.27308172
238	0xbe134c75	-0.14384635
239	0x3d8aefe7	0.06784039
240	0x3e1ab5ff	0.15108489
241	0x3e7a4a93	0.2444251
242	0xbd9a58f0	-0.07536495
243	0xbe16a9c8	-0.14713204
244	0xbd5c63f0	-0.053806245
245	0x3e0bb758	0.13644159
246	0xbe374c72	-0.17900255
247	0x3dd32e63	0.10311582
248	0x3e944420	0.28958225
249	0x3d4adbe7	0.04952612
250	0xbd1d6391	-0.038425032
251	0xbe76aa64	-0.24088436
252	0x3d89e4b5	0.067330755
253	0x3b8ddec0	0.0043295324
254	0x3e0a10e0	0.13483
255	0xbe6a0fb4	-0.22857553

linear2.weight f4 [3, 256]
0	0x3bc85e95	0.0061147907
1	0xbd1ddc81	-0.038540367
2	0x3cd50fd6	0.026008528
3	0xbcb960d6	-0.022629183
4	0x3cbe2a24	0.023213454
5	0x3d405a63	0.0469612
6	0xbd7e3392	-0.0620609
7	0xbd4a87f2	-0.049446054
8	0x3bddf722	0.0067738453
9	0xbd4eee75	-0.05052038
10	0xbcbfcb78	-0.023412451
11	0xbb436e20	-0.0029820278
12	0x3bb32a6d	0.005467704
13	0xbc012ce5	-0.007884239
14	0xbd626f4c	-0.055281922
15	0xbc35ffa8	-0.0111083165
16	0xbd5f7fb4	-0.054565147
17	0xbd3b504f	-0.045730885
18	0x3d124b32	0.035716243
19	0xbcac6372	-0.021043513
20	0xbcf6d350	-0.030130059
21	0x3bc93a42	0.006140978
22	0xba283aad	-0.0006417435
23	0x3cb2ab16	0.021810096
24	0x3c1efed0	0.009704307
25	0xbd9e9ab9	-0.07744355
26	0x3b567fd7	0.0032730007
27	0x3cc82859	0.024433302
28	0x3c8aaeb0	0.016929
29	0xbc65826c	-0.014008146
30	0xbd2b5cd1	-0.041836563
31	0xbd06dca8	-0.032925278
32	0xbd5ca984	-0.0538726
33	0xbd2aaad3	-0.041666817
34	0x3dabd73b	0.08390661
35	0x3d0ed87f	0.034874436
36	0xbda6a711	-0.08137334
37	0x3d433bc5	0.047664423
38	0xbd4d13b4	-0.05006762
39	0x3cc8a44e	0.02449241
40	0xbb8fe3b2	-0.004391157
41	0x3d1d929c	0.038469896
42	0x3d6cba52	0.057794876
43	0x3d8d7a2a	0.069080666
44	0xbc348107	-0.011017091
45	0xbcbd662c	-0.023120008
46	0x3cdf4a3c	0.027257077
47	0x3d00784f	0.031364735
48	0xbb9998fc	-0.0046874266
49	0xbd83ebdf	-0.06441473
50	0x3d8370fd	0.06418035
51	0xbd4f925c	-0.05067669
52	0xbd53b933	-0.05169029
53	0x3d09cdcc	0.03364353
54	0x3c753d6b	0.0149682565
55	0x3ce6320c	0.028100036
56	0x3bc40740	0.0059823096
57	0x3d782c17	0.060588922
58	0xbd39b813	-0.045341562
59	0x3ca7f5cb	0.020502945
60	0xbd2de82a	-0.042457737
61	0xbb4c5dfc	-0.0031183949
62	0x3d2dd7c2	0.04244209
63	0xbd353c54	-0.044246987
64	0xbc8ee930	-0.017445177
65	0xbd89de7d	-0.067318894
66	0xbd7ef2de	-0.062243335
67	0x3cce5b45	0.025190005
68	0x3c0b6f33	0.008510399
69	0xbba12068	-0.004917193
70	0xbc9c6c10	-0.019094497
71	0xbd64eea2	-0.05589164
72	0x3c520363	0.01281819
73	0x3d05f4d9	0.032704208
74	0x3c923128	0.017845705
75	0x3d1474a9	0.03624407
76	0xbd7f52d4	-0.06233485
77	0x3cf0af66	0.029380511
78	0xbc045abc	-0.008078273
79	0x3cf3bad1	0.029752167
80	0x3d46051c	0.048344716
81	0xbd5329cd	-0.051553536
82	0x3c08e6c4	0.0083558
83	0x3c6f4966	0.014604902
84	0xbd60ebf6	-0.05491253
85	0xbd187f35	-0.03723069
86	0xbdf696b4	-0.12040463
87	0xbbfc3902	-0.0076972255
88	0x3cec077f	0.028812168
89	0x3d0e0b9f	0.03467905
90	0x3cf09e72	0.029372428
91	0xbcfe8860	-0.031070888
92	0x3c3d161a	0.011540914
93	0x3c7473ab	0.0149201555
94	0xbd9a071a	-0.07520886
95	0xbc6d1f81	-0.014472843
96	0xbbcf7ef9	-0.006332275
97	0xbd103cd0	-0.035214245
98	0xbc19accf	-0.00937958
99	0xbcddf76e	-0.027095523
100	0x3b5dbd44	0.0033834735
101	0xbc38a3ec	-0.011269551
102	0x3d228adc	0.039683208
103	0xbd10d919	-0.03536329
104	0xbb913da0	-0.004432395
105	0x3d677ff0	0.056518495
106	0x3c74916b	0.0149272485
107	0xbd9733bd	-0.07382915
108	0x3cd75ce8	0.026289418
109	0xbc82fa29	-0.015988426
110	0xbd2407a2	-0.04004634
111	0x3b018b61	0.0019766914
112	0xbd292df4	-0.04130359
113	0xbd33a8e8	-0.043862253
114	0xbd0fbd2f	-0.03509253
115	0xbc2fcf57	-0.010730586
116	0xbd27a8cd	-0.040932465
117	0xbd3614af	-0.04445332
118	0xbb34db14	-0.00275964
119	0xbdaace55	-0.08340136
120	0xbd9537a9	-0.07286007
121	0x3ce6f718	0.028193995
122	0xbd04aa3f	-0.03238892
123	0x3d5cd56b	0.05391447
124	0xbd5582a5	-0.052126545
125	0xbbef0e7b	-0.0072954274
126	0xbd471275	-0.048601586
127	0xbcc45bf1	-0.023969622
128	0xbce8f568	-0.028437331
129	0xbb518fa2	-0.003197648
130	0xbd599f42	-0.053130396
131	0xbda9cc9c	-0.08290979
132	0xbc49b765	-0.012311791
133	0xbd1344da	-0.035954334
134	0xbc2c6d4f	-0.010524108
135	0xbd57f4f6	-0.052723847
136	0xbd27437a	-0.040835835
137	0xbd935b17	-0.071951084
138	0xbd2daa6a	-0.042398848
139	0x3cd3dc5c	0.025861911
140	0xbca72875	-0.020405034
141	0x3d1292a8	0.035784394
142	0xbd035e40	-0.032072306
143	0x3cb319d1	0.021862896
144	0xbcaeb80c	-0.021327995
145	0x3cd8eaba	0.026479114
146	0xbd887ba4	-0.066642076
147	0x3b9c7490	0.0047746375
148	0xbd54391f	-0.051812287
149	0xbd54b68a	-0.051931895
150	0xbb6880a4	-0.0035477066
151	0x3d6511a1	0.055925015
152	0x3c0faf58	0.008769833
153	0x3d9dcd40	0.07705164
154	0xbd3f4e16	-0.046705328
155	0xbcdb6417	-0.026781125
156	0xbd6a5720	-0.057211995
157	0xbc8a1e7c	-0.01686024
158	0x3c6829e1	0.014170141
159	0xbd2af020	-0.041732907
160	0xbd89eb19	-0.067342944
161	0x3c75544d	0.014973712
162	0xbcabed4c	-0.020987175
163	0x3adac2a6	0.001669009
164	0x3c403236	0.011730721
165	0xbc9dace8	-0.019247487
166	0x3d88079f	0.066420786
167	0xbd2fe064	-0.042938605
168	0xbcca582e	-0.02470025
169	0xbbf48a84	-0.0074628014
170	0xbd0b020a	-0.03393749
171	0x3d17fefa	0.0371084
172	0xbc958231	-0.018250557
173	0x3ba6547b	0.005075989
174	0xbcc5a776	-0.024127703
175	0xbd7565be	-0.059911482
176	0xbdc2db1a	-0.095144466
177	0xbdb85670	-0.09000862
178	0xbda98a58	-0.0827834
179	0x3d67f9db	0.056634765
180	0xbdb6232a	-0.08893426
181	0x3d305005	0.043045063
182	0x3ca48649	0.020083563
183	0x3a5f1fb2	0.0008511498
184	0xbcda785f	-0.026668726
185	0x363d3f80	2.8200157e-06
186	0xbd455e83	-0.048185837
187	0xbd386390	-0.045016825
188	0xbcc91b66	-0.024549197
189	0x3d928675	0.07154552
190	0x3cba6bd4	0.022756495
191	0x3dc3ef2f	0.09567105
192	0xbbfd07e2	-0.007721887
193	0xbd15c158	-0.03656134
194	0xbd03d4c5	-0.032185335
195	0xbd36a882	-0.044594295
196	0xbd981394	-0.07425609
197	0x3d8c7c56	0.06859653
198	0x3ce57db4	0.028014041
199	0x3d874944	0.06605771
200	0x3d83416b	0.06408962
201	0xbd2e13e8	-0.042499453
202	0x3d4ba9e5	0.04972257
203	0xbd58a77b	-0.052894097
204	0x3bb4ba59	0.0055153784
205	0xbd84dc1d	-0.06487296
206	0x3d877d42	0.06615688
207	0x3d1649fc	0.03669165
208	0xbd8c5d10	-0.06853688
209	0x3cd45e7e	0.025923964
210	0x3ce4b4e5	0.027918288
211	0x3ccbef47	0.02489437
212	0x3d3fc14a	0.046815194
213	0x3cec8652	0.028872643
214	0xbc619470	-0.0137683
215	0xbd708d66	-0.058728598
216	0xbcd0e63e	-0.025500413
217	0x3d627fbb	0.055297595
218	0xbce9b0b5	-0.028526643
219	0xbaebfdfc	-0.001800477
220	0xbd0c38da	-0.034233905
221	0xbd4062bb	-0.046969157
222	0x3d192826	0.037391804
223	0x3ab2cc1d	0.0013641153
224	0x3d869e62	0.06573178
225	0x3ccf4e79	0.025305973
226	0xbce6bb88	-0.028165594
227	0x3bb9c5a8	0.0056693144
228	0x3c200aa7	0.009768165
229	0x3d2bbef1	0.041930143
230	0xbcd87f71	-0.026427956
231	0xb939ace0	-0.00017707376
232	0xbd41dc4a	-0.047329225
233	0xbd4729d4	-0.048623875
234	0x3d4a462a	0.04938332
235	0xbd66ad99	-0.0563179
236	0xbca0e3c2	-0.019639853
237	0xbcea30f3	-0.028587794
238	0x3cc8d4ea	0.024515588
239	0x3d831180	0.06399822
240	0x3d01c372	0.03168053
241	0xbd03b91a	-0.03215895
242	0xbd0a5ff9	-0.033782933
243	0x3c852aef	0.016255824
244	0x3c25fa1a	0.01013043
245	0xbc3dd782	-0.011587026
246	0x3d593717	0.053031053
247	0x3d151e2b	0.036405724
248	0xbd0841e0	-0.03326595
249	0xbc5f27fa	-0.013620371
250	0xbcb078b3	-0.021541929
251	0x3d2b5f16	0.041838728
252	0x3d2fd774	0.04293008
253	0x3cdff6ff	0.027339457
254	0xbb55dfe4	-0.003263467
255	0xbcc025ae	-0.023455467

linear2.bias f4 [3]
0	0xbce00160	-0.027344406
1	0x3c4727f0	0.012155518
2	0xbc8897c0	-0.016673923
